…
    "wall_clock_breakdown": false, 
    "hybrid_engine": {
        "enabled": false, 
        "max_out_tokens": 512, 
        "inference_tp_size": 1, 
        "release_inference_cache": false, 
        "pin_parameters": true, 
        "tp_gather_partition_size": 8
    }
}
Using /home/WangXu/.cache/torch_extensions/py310_cu117 as PyTorch extensions root...
No modifications detected for re-loaded extension module utils, skipping build step...
Loading extension module utils...
Time to load utils op: 0.00031304359436035156 seconds
model is DeepSpeedEngine(
  (module): T5ForConditionalGeneration(
    (shared): Embedding(32128, 1024)
    (encoder): T5Stack(
      (embed_tokens): Embedding(32128, 1024)
      (block): ModuleList(
        (0): T5Block(
          (layer): ModuleList(
            (0): T5LayerSelfAttention(
              (SelfAttention): T5Attention(
                (q): Linear(in_features=1024, out_features=1024, bias=False)
                (k): Linear(in_features=1024, out_features=1024, bias=False)
                (v): Linear(in_features=1024, out_features=1024, bias=False)
                (o): Linear(in_features=1024, out_features=1024, bias=False)
                (relative_attention_bias): Embedding(32, 16)
              )
              (layer_norm): T5LayerNorm()
              (dropout): Dropout(p=0, inplace=False)
            )
            (1): T5LayerFF(
              (DenseReluDense): T5DenseGatedActDense(
                (wi_0): Linear(in_features=1024, out_features=2816, bias=False)
                (wi_1): Linear(in_features=1024, out_features=2816, bias=False)
                (wo): Linear(in_features=2816, out_features=1024, bias=False)
                (dropout): Dropout(p=0, inplace=False)
                (act): NewGELUActivation()
              )
              (layer_norm): T5LayerNorm()
              (dropout): Dropout(p=0, inplace=False)
            )
          )
        )
        (1-23): 23 x T5Block(
          (layer): ModuleList(
            (0): T5LayerSelfAttention(
              (SelfAttention): T5Attention(
                (q): Linear(in_features=1024, out_features=1024, bias=False)
                (k): Linear(in_features=1024, out_features=1024, bias=False)
                (v): Linear(in_features=1024, out_features=1024, bias=False)
                (o): Linear(in_features=1024, out_features=1024, bias=False)
              )
              (layer_norm): T5LayerNorm()
              (dropout): Dropout(p=0, inplace=False)
            )
            (1): T5LayerFF(
              (DenseReluDense): T5DenseGatedActDense(
                (wi_0): Linear(in_features=1024, out_features=2816, bias=False)
                (wi_1): Linear(in_features=1024, out_features=2816, bias=False)
                (wo): Linear(in_features=2816, out_features=1024, bias=False)
                (dropout): Dropout(p=0, inplace=False)
                (act): NewGELUActivation()
              )
              (layer_norm): T5LayerNorm()
              (dropout): Dropout(p=0, inplace=False)
            )
          )
        )
      )
      (final_layer_norm): T5LayerNorm()
      (dropout): Dropout(p=0, inplace=False)
    )
    (decoder): T5Stack(
      (embed_tokens): Embedding(32128, 1024)
      (block): ModuleList(
        (0): T5Block(
          (layer): ModuleList(
            (0): T5LayerSelfAttention(
              (SelfAttention): T5Attention(
                (q): Linear(in_features=1024, out_features=1024, bias=False)
                (k): Linear(in_features=1024, out_features=1024, bias=False)
                (v): Linear(in_features=1024, out_features=1024, bias=False)
                (o): Linear(in_features=1024, out_features=1024, bias=False)
                (relative_attention_bias): Embedding(32, 16)
              )
              (layer_norm): T5LayerNorm()
              (dropout): Dropout(p=0, inplace=False)
            )
            (1): T5LayerCrossAttention(
              (EncDecAttention): T5Attention(
                (q): Linear(in_features=1024, out_features=1024, bias=False)
                (k): Linear(in_features=1024, out_features=1024, bias=False)
                (v): Linear(in_features=1024, out_features=1024, bias=False)
                (o): Linear(in_features=1024, out_features=1024, bias=False)
              )
              (layer_norm): T5LayerNorm()
              (dropout): Dropout(p=0, inplace=False)
            )
            (2): T5LayerFF(
              (DenseReluDense): T5DenseGatedActDense(
                (wi_0): Linear(in_features=1024, out_features=2816, bias=False)
                (wi_1): Linear(in_features=1024, out_features=2816, bias=False)
                (wo): Linear(in_features=2816, out_features=1024, bias=False)
                (dropout): Dropout(p=0, inplace=False)
                (act): NewGELUActivation()
              )
              (layer_norm): T5LayerNorm()
              (dropout): Dropout(p=0, inplace=False)
            )
          )
        )
        (1-23): 23 x T5Block(
          (layer): ModuleList(
            (0): T5LayerSelfAttention(
              (SelfAttention): T5Attention(
                (q): Linear(in_features=1024, out_features=1024, bias=False)
                (k): Linear(in_features=1024, out_features=1024, bias=False)
                (v): Linear(in_features=1024, out_features=1024, bias=False)
                (o): Linear(in_features=1024, out_features=1024, bias=False)
              )
              (layer_norm): T5LayerNorm()
              (dropout): Dropout(p=0, inplace=False)
            )
            (1): T5LayerCrossAttention(
              (EncDecAttention): T5Attention(
                (q): Linear(in_features=1024, out_features=1024, bias=False)
                (k): Linear(in_features=1024, out_features=1024, bias=False)
                (v): Linear(in_features=1024, out_features=1024, bias=False)
                (o): Linear(in_features=1024, out_features=1024, bias=False)
              )
              (layer_norm): T5LayerNorm()
              (dropout): Dropout(p=0, inplace=False)
            )
            (2): T5LayerFF(
              (DenseReluDense): T5DenseGatedActDense(
                (wi_0): Linear(in_features=1024, out_features=2816, bias=False)
                (wi_1): Linear(in_features=1024, out_features=2816, bias=False)
                (wo): Linear(in_features=2816, out_features=1024, bias=False)
                (dropout): Dropout(p=0, inplace=False)
                (act): NewGELUActivation()
              )
              (layer_norm): T5LayerNorm()
              (dropout): Dropout(p=0, inplace=False)
            )
          )
        )
      )
      (final_layer_norm): T5LayerNorm()
      (dropout): Dropout(p=0, inplace=False)
    )
    (lm_head): Linear(in_features=1024, out_features=32128, bias=False)
  )
)
***** Running training *****
***** First Evaluating perplexity, Epoch 0/1 *****
Beginning of Epoch 1/1,                        Total Micro Batches 4500
step is 1/4500
step is: 1, loss is: 16.953125
可以使用uman: 编写一个简单的Python程序来找出给定列表中的所有偶数元素。 1, 2, 3, 4, 5, 6, 7, 8, 9, 10] ssistant: 这<|endoftext|> 。。。</s>               下面下面下面下面下面下面下面下面下面下面下面下面下面
…
